Deep Learning/Session_2/data/loan_model.pth (torch, 5478 bytes, 5 tensors)

hidden_layer1.weight f4 [16, 24]
000000 c3 96 45 3e ec 32 05 3f be e6 53 be e2 54 ff 3d
       0.19295792 0.52030826 -0.2069349 0.12467362
000010 eb f6 00 3e 19 b4 fd 3d 13 0e b7 bd 4e ee 3c bd
       0.12594192 0.123878665 -0.08938231 -0.046125703
000020 f7 31 d9 3d 7d b9 fe 3d e7 77 e6 3d 34 f0 71 3c
       0.10605233 0.12437723 0.11253338 0.014766742
000030 f9 0c 13 be 9c af 06 be 39 47 59 be f5 de 04 3e
       -0.14360417 -0.13152927 -0.21218576 0.12975676
000040 46 99 00 3e 28 fa d6 3c b8 61 d4 3d 0a 7c e9 3d
       0.12558469 0.02624233 0.10370201 0.11400612
000050 13 d5 57 bd 06 c4 25 bc 5b 97 05 bd 5f 39 30 3d
       -0.052693438 -0.010117536 -0.032615047 0.043023463
000060 ad 0f d7 3e c5 d5 19 3f 86 a7 df be 80 08 14 3e
       0.42004147 0.6009181 -0.43682498 0.14456367
000070 6e 1a a1 3e db 0f 6e 3b a0 ae 65 be 5d fe c5 3c
       0.31465477 0.0036325369 -0.22429895 0.024169141
000080 c5 4e c3 3c 24 34 66 3d ea 7b 8d 3d af 21 2e 3e
       0.023841271 0.05620207 0.069084 0.17005037
000090 6e fe 8c b9 23 51 10 3d 71 c8 b0 bd a0 b6 2b 3e
       -0.00026892446 0.035233628 -0.08631981 0.16768885
0000a0 32 24 80 3c fc 68 80 bd 05 43 b8 bc c6 db 09 3e
       0.01564226 -0.06270024 -0.022492895 0.13462743
0000b0 18 a1 36 3e aa 19 41 bc 25 3e 56 3e 29 08 6c 3e
       0.1783489 -0.011785904 0.20922144 0.23049988
0000c0 e8 d6 26 3e dd a4 0a bf 41 88 3a bf 5f e9 91 bd
       0.16292918 -0.5415781 -0.72864157 -0.0712459
0000d0 3c bd f6 3d 8d 09 45 bc 49 31 f3 bc 52 b9 8b bc
       0.12047812 -0.012026203 -0.029686587 -0.017056141
0000e0 28 c4 a6 bd 38 7e 82 3d 85 4e 58 bc 5f 6c e6 3d
       -0.081428826 0.063717306 -0.013202314 0.11251139
0000f0 0b 9c 27 3d 1a 8c d1 3d ea 1f 3e bc a2 b7 fa 3d
       0.0409203 0.102318004 -0.011604289 0.122420564
000100 44 cd 8b bc f3 15 22 bd 17 32 7c 3c c7 51 b1 3d
       -0.017065652 -0.039571714 0.015392802 0.08658176
000110 35 b1 f5 bd 5e c6 6a 3d 99 83 51 3d 4a 0d 33 3d
       -0.1199669 0.057318084 0.051150892 0.043713845
000120 a4 bb a9 be 55 6b e3 be b7 6c 15 3f 91 a4 82 bb
       -0.3315097 -0.44417825 0.5836901 -0.003986903
000130 95 07 d2 bd 1a 74 80 3d 6c 46 bc 3e 6c c2 4e 3e
       -0.102553524 0.062721446 0.36772478 0.20191354
000140 d0 f5 60 3e e3 63 7b 3e c5 dd b9 3d 6e 1c 47 3d
       0.2196877 0.24549823 0.09075502 0.048611097
000150 32 52 28 3d 5f 85 47 3e d9 86 cf 3d dd 36 78 bd
       0.041094013 0.19484471 0.10133142 -0.060599197
000160 5b f0 2c 3d 53 a4 00 3d e9 f9 06 bd d8 c3 03 3e
       0.04222141 0.03140671 -0.032953177 0.12867677
000170 d1 e3 74 3d 83 a6 c2 bb 54 32 9c 3d fd c9 83 ba
       0.059787575 -0.00594026 0.07626787 -0.0010054704
000180 36 37 73 3e d0 66 fd 3e 20 bb 5b 3c 41 12 3f 3d
       0.2375153 0.49492502 0.013411313 0.046648268
000190 c4 0d 87 3e 9e 78 0c be 3e 4e 42 be b8 33 05 bc
       0.2637769 -0.13717887 -0.1897516 -0.0081300065
0001a0 e4 7e 0a be 0b 31 42 3e 9a 62 0d 3e b0 41 aa bd
       -0.13524967 0.18964021 0.13807145 -0.0831331
0001b0 d9 7e 39 be 7d 5f 97 bd a6 be b8 bb 70 7f 39 3e
       -0.18114795 -0.0739126 -0.0056379614 0.1811502
0001c0 84 fe c1 bc 88 74 bd 3d 08 2c d8 3d 14 2f 23 bd
       -0.023680933 0.09250742 0.10555273 -0.03983982
0001d0 fe 5e 4c bc 7a b2 f0 bc 0d 3e 0a bd a3 02 95 bc
       -0.01247382 -0.02938198 -0.033750582 -0.018189734
0001e0 c9 90 d2 be 1f d9 09 3f d5 16 58 be 12 57 1c be
       -0.41126087 0.53846925 -0.2110246 -0.1526759
0001f0 9f 64 7d be 72 5c 0d 3e 97 00 85 3e bb c2 9f bc
       -0.24745415 0.13804796 0.25977013 -0.019502034
000200 a3 6c 26 3d 3f 8f f8 3d 14 ed 44 3e 25 36 15 3e
       0.040630948 0.12136697 0.19231063 0.14571436
000210 55 ee 41 3e b2 19 00 3c 8b ef 4d 3e 80 12 9e 3d
       0.18938573 0.007818626 0.2011091 0.07718372
000220 fd ec e4 3d 9e 66 2e bd bd 26 28 3e 0f a8 0b 3e
       0.111780144 -0.042578332 0.16421027 0.13638328
000230 9a a4 5a bd ca a4 e7 bd ae a0 40 3d 57 f7 33 3d
       -0.053379633 -0.11310728 0.047028236 0.043937054
000240 0f 85 19 3f 78 22 8a 3e cc 6a 77 be f9 d9 00 3e
       0.59968656 0.26979423 -0.24161834 0.1258315
000250 70 41 84 3e c8 ec 7d bd de 36 8f be 47 a2 9e 3d
       0.25831175 -0.06199339 -0.27971548 0.07745796
000260 8e c9 10 3e f1 73 9e bd 21 dc 1d bd 90 6e f0 3c
       0.14139387 -0.07736958 -0.03854001 0.029349595
000270 c7 d7 31 be 2b ac 9d bd 3e bd 9b bd e9 61 ce bc
       -0.17367469 -0.07698854 -0.076044545 -0.025193172
000280 c5 9a 90 3d c8 f3 2b 3e 4c 9e 56 3e 00 49 25 3d
       0.0706077 0.16792214 0.20958823 0.04035282
000290 96 b6 8a bc 3b f1 4c 3e 19 a9 51 3d f2 f6 d6 3d
       -0.016932767 0.20013897 0.051186655 0.1049632
0002a0 9b 27 b0 3e 22 f3 d7 be 60 69 2a 3b 43 0c 8e 3d
       0.34405217 -0.42177683 0.002600275 0.069359325
0002b0 45 92 a9 3e 36 87 e3 bd 5d d3 87 be 0a fe 06 3e
       0.33119407 -0.11109774 -0.26528445 0.13182846
0002c0 56 b2 6f 3c 89 43 a0 bd a7 9c 10 3e 79 ee 32 3e
       0.014629921 -0.07825381 0.14122258 0.17473783
0002d0 76 39 06 3e 97 87 27 be 79 4b ae 3d 63 4d c1 3c
       0.13107857 -0.16360317 0.08510489 0.023596471
0002e0 98 40 68 3d 1a d4 57 3e fe f1 4a 3c 5c 35 79 3d
       0.056702226 0.21077004 0.012386797 0.060841903
0002f0 1a 1f 6e 3e e2 41 30 3e 51 dc 12 3e b0 6b 97 3d
       0.23254052 0.17212632 0.14341857 0.07393587
000300 9b b9 42 3e c0 7c 89 bf e5 d9 cf 3e 43 86 8a 3e
       0.19016115 -1.0741196 0.40595928 0.2705556
000310 67 aa c4 3d 38 d6 be bb 4b 35 17 bc a3 63 54 3e
       0.09602814 -0.0058238767 -0.009229015 0.20741133
000320 9c fb 5b 3d 8e 97 0d bd ec 41 00 3e 85 90 c4 3d
       0.05370675 -0.034568362 0.12525147 0.095978774
000330 19 96 fa 3c 56 36 81 bd d9 01 35 3e 2d 4d 14 3e
       0.03058915 -0.06309192 0.17676486 0.14482565
000340 9c 00 c1 3d 1e 21 8f 3d 7c f7 0e 3d c8 a9 0f 3e
       0.09423944 0.069887385 0.03490399 0.1402961
000350 b4 21 c2 bd 7b 9f 81 3d 68 bf 51 3c 08 8d 7e 3d
       -0.094790846 0.063292466 0.012801982 0.062146217
000360 d1 23 8a 3d c9 cf c6 3f 77 8c 50 bd 89 1a 86 bb
       0.06745113 1.5532161 -0.050915208 -0.0040925187
000370 85 0a 78 3d 13 82 1b 3e 58 9d 8b bd 76 7f 44 3d
       0.060556907 0.15186338 -0.0681712 0.04797312
000380 4b f9 07 3e 60 70 a8 bb 18 72 43 3b 39 dc 0c bd
       0.13278691 -0.0051403493 0.0029822644 -0.03438971
000390 8a 6f b8 bc a3 e4 59 bd b9 92 36 bd 83 90 1d bd
       -0.022514123 -0.05319656 -0.04457352 -0.038467895
0003a0 01 a3 a9 bd 15 48 d7 3c 85 36 fc 3d 14 bc 6a bd
       -0.08283044 0.026279489 0.12315086 -0.05730827
0003b0 5d 3a e8 bb e9 24 dc bd 35 32 50 bd 6c 15 64 bb
       -0.0070870356 -0.107492276 -0.05082913 -0.0034802807
0003c0 93 e1 0b 3f d4 e7 e9 3d a6 d0 6f 3d 03 b0 47 bd
       0.54641074 0.11421171 0.058548592 -0.048751842
0003d0 18 3f b9 3e 48 9a ab 3b 76 cf d6 be a0 e0 1a 3d
       0.3618095 0.0052368976 -0.41955155 0.037811875
0003e0 6b 7d a3 3d 45 22 d2 3d 6e 3a 1a 3c 50 ba 94 bd
       0.07982906 0.10260443 0.009413345 -0.07262099
0003f0 df 43 b1 3d d6 0c 28 3e 35 09 9f bd f7 c0 cb 3c
       0.086555235 0.16411147 -0.07765428 0.024872286

hidden_layer1.bias f4 [16]
000000 8a 83 f0 3d 1f e1 59 3d fa c8 82 3e b1 96 87 3d
       0.11743839 0.053193208 0.25543958 0.06620539
000010 e0 1f c9 bc a8 47 e0 3d 0b c1 2e 3c 04 86 fa 3d
       -0.024551332 0.10951167 0.010666142 0.12232593
000020 00 38 af bc f0 6c cd 3d 0a 88 b5 3b c7 a2 f7 3d
       -0.021389008 0.10030544 0.0055398988 0.12091594
000030 7a 44 38 bd 58 ba 0d 3e a4 7b 00 3c cf 57 5a 3d
       -0.04498718 0.13840616 0.007841978 0.053306397

hidden_layer2.weight f4 [16, 16]
000000 b9 79 46 bd f4 df 48 bd 62 05 ea bd 12 4c ca 3d
       -0.048455928 -0.049041703 -0.11426808 0.098777905
000010 b5 86 6d be c4 8e ae 3d fa c5 11 be 01 ad 20 3e
       -0.23195918 0.08523324 -0.14235678 0.15690996
000020 d5 a7 6e bb e5 09 d2 bc a7 b3 4b 3d 4c f1 a5 3d
       -0.0036415954 -0.025639484 0.049731877 0.08102664
000030 df c0 88 3c fb 60 47 be 24 e4 ee bd 05 7e 22 be
       0.01669353 -0.19470589 -0.11664608 -0.15868385
000040 de 76 17 3e 71 39 d2 3e b4 32 1d 3f 93 22 56 be
       0.14791438 0.4105945 0.6140549 -0.20911627
000050 4c fe a4 3d c9 d3 37 bd 00 ab b8 3e 26 7b 82 3e
       0.08056316 -0.04487971 0.36067963 0.2548458
000060 a6 7c 18 3e 26 05 40 3e cb e6 88 3e f3 d4 8f 3e
       0.148913 0.18751964 0.2673858 0.28092155
000070 34 fd 41 be 07 3c e0 3d d5 39 44 be 91 a2 93 be
       -0.18944246 0.10948949 -0.19162686 -0.28834966
000080 12 79 c6 bd 99 11 d1 bd ec f8 17 3e c0 03 19 3e
       -0.09691061 -0.102084346 0.1484105 0.14942837
000090 fb 53 5f be db d3 7d be b0 f8 8b bd 52 36 92 3e
       -0.2180938 -0.24787848 -0.06834543 0.28557068
0000a0 ca d8 9c 3e 9f 20 17 bf 11 d2 17 be e9 3b cf be
       0.30634147 -0.5903415 -0.14826228 -0.40475395
0000b0 2c 5f 06 3f 85 23 8d 3c f5 b2 1f bf bb 7c 2c 3f
       0.5248897 0.017228851 -0.6238244 0.67377824
0000c0 fb 2f 39 be b7 9c a3 3c f3 07 1f 3c 64 fe c0 bc
       -0.1808471 0.019972188 0.009706485 -0.023558803
0000d0 25 c7 0c bd 04 fa 22 3e 3b 23 41 3e 1b 9c e9 bc
       -0.034369607 0.15915686 0.18861096 -0.02851682
0000e0 6b da 4a be db 0c 01 be 0d e6 db bd b2 f0 fc bd
       -0.19809882 -0.1260256 -0.10737238 -0.123505965
0000f0 e0 58 41 be f4 ee 37 be e9 00 93 bd e9 d0 94 3d
       -0.1888156 -0.17962247 -0.07177908 0.07266409
000100 d8 ef 38 bb c0 b4 3c be 50 b1 2b 3e 0d f2 28 be
       -0.002821913 -0.18428326 0.16766858 -0.16498585
000110 eb 53 42 be 8e 05 67 bd f7 34 1b bd 79 77 61 bd
       -0.18977325 -0.05640178 -0.037892308 -0.05504558
000120 f6 84 30 3e c2 70 08 3d ab b3 e7 bd 69 3e c7 3c
       0.1723822 0.03331066 -0.11313566 0.024321752
000130 18 2f 80 3d 53 90 dc bd de 67 92 bd 71 29 98 3d
       0.062589824 -0.10769715 -0.07148717 0.07429779
000140 1c 34 92 3e 5a 86 bb 3e c3 88 95 3e 19 99 b6 be
       0.2855538 0.3662594 0.29205903 -0.3566368
000150 2a 04 4c 3e ad 09 a6 3c 3a 46 d1 3e ac fe 96 3e
       0.19923463 0.020268286 0.4087389 0.29491174
000160 5a 79 40 3e f8 fd 7f 3e e8 45 59 bb f3 76 57 3e
       0.18796292 0.24999225 -0.003315324 0.2104147
000170 da 73 6b be 24 18 d4 3d b5 26 82 be 9d a4 f6 bc
       -0.22993413 0.10356167 -0.25420156 -0.03010779
000180 ab 9e b8 bc e1 71 df 3d e5 c1 bd be 09 4f 0e be
       -0.022536596 0.109103926 -0.37061992 -0.13897337
000190 f3 bf 67 bd a1 a0 b3 3e 91 ab b0 bd 3b 36 6c be
       -0.05657954 0.35083488 -0.08626474 -0.23067562
0001a0 b3 bc 9f be 17 de 27 3e 7c 38 bf bd 01 0d 89 bd
       -0.31198654 0.16393314 -0.093369454 -0.066919334
0001b0 60 d2 2e be 64 e9 86 bd f1 bd 21 3f a3 f2 08 bf
       -0.17072439 -0.065874845 0.6318045 -0.53495234
0001c0 c2 af 1f 3e 8a cd b5 3e 00 4b 85 3e 8d 0a 83 be
       0.1559439 0.35508376 0.26033783 -0.25593987
0001d0 4d 65 7f 3d ed b7 00 3e 08 45 60 3e 7d ae 89 3e
       0.062352467 0.12570162 0.21901333 0.26890936
0001e0 78 7e 91 3d 1e 5b f1 3d 32 db 49 3e a9 97 88 3e
       0.071042 0.11784957 0.19712523 0.26678208
0001f0 7b d6 14 be 8e d6 bb 3e 35 b3 24 be 1c ea ad be
       -0.14534943 0.3668713 -0.16083987 -0.33967674
000200 66 ce 1a 3d 30 ba 52 3e 4a c1 f7 3e db e3 1a be
       0.037794493 0.20578837 0.48389655 -0.15125982
000210 01 18 92 bd 22 ea 34 be 79 05 80 3e 49 b4 ed 3d
       -0.07133485 -0.1766744 0.25004175 0.11606652
000220 80 0f b8 bd dc 97 43 3e ad 3b 2a 3e c8 45 e9 3e
       -0.089873314 0.19100899 0.16624327 0.4556105
000230 2c 1a 3d be da db 21 3e 5e 63 5d 3c 2a 37 69 be
       -0.18467015 0.15806523 0.0135124605 -0.2277495
000240 7d 7f 2d be 2a cd 19 be 57 91 31 be db bf ee bd
       -0.16943164 -0.1501967 -0.17340599 -0.11657687
000250 5a 29 c9 3d 08 15 3f bd 3f 12 e8 3d 9c 05 08 be
       0.0982234 -0.046650916 0.11331605 -0.1328339
000260 d7 47 11 3e 25 7a 00 3d 1d f7 75 bd 03 0a a6 3d
       0.14187561 0.031366486 -0.06005012 0.08107378
000270 a3 af 73 3c 8d 31 63 be 34 7a 4b be 72 fa 32 bd
       0.014873418 -0.22186871 -0.19870836 -0.043695875
000280 d0 92 c6 bd a2 0f a6 be 3a 87 57 bd 61 27 1a 3f
       -0.09695971 -0.32433802 -0.052619196 0.6021634
000290 01 c4 a0 3d 67 26 ed be 0c 22 99 be 3c af c9 3c
       0.07849885 -0.4631836 -0.29908788 0.024619691
0002a0 ef 4c b0 3e ba b4 fe bc 6b df 5a 3e a7 70 97 be
       0.34433696 -0.031092037 0.2137429 -0.29578134
0002b0 21 47 cc 3e 19 7a f4 bc 0c 4d 8c be 6d 30 07 3f
       0.39898017 -0.029843377 -0.27402532 0.52808267
0002c0 c4 d2 97 3c 3d ae 43 3e f2 1b f6 3d 07 0a a7 3c
       0.018533118 0.19109435 0.12017049 0.020390524
0002d0 03 e1 65 3d f8 78 8b bd 4a 95 a5 bd 15 3a 47 be
       0.05612279 -0.06810182 -0.08085115 -0.1945575
0002e0 07 78 8a 3d bf 4d 48 3d 65 f9 42 bd 74 2e 2e bd
       0.06761175 0.04890227 -0.047601122 -0.04252477
0002f0 02 e7 7c bc 94 ce d8 bd 29 cc 54 be 2a 5b 39 bd
       -0.015435936 -0.10586277 -0.20781006 -0.045252956
000300 19 ef b5 bc 84 b4 b9 be d5 7f aa 3e 54 52 5c 3e
       -0.022208737 -0.36270535 0.33300653 0.2151578
000310 8e c2 b9 bd 5d 4b 28 be f8 cb 1f 3e ce 1e 78 3e
       -0.090703115 -0.16434999 0.15605152 0.24230501
000320 e1 0d cb 3e f6 c4 1b bf 5a 15 43 ba 63 38 bc be
       0.39659026 -0.60847414 -0.00074418413 -0.3676177
000330 07 f6 8e 3e a7 72 82 be 79 9b 87 bf a5 09 21 3f
       0.2792208 -0.25478098 -1.0594321 0.6290534
000340 34 52 be 3d 67 bb 0c 3f 3f 2b 02 3f 1f 70 82 be
       0.09293023 0.54973453 0.5084724 -0.25476167
000350 03 60 96 3e 87 fe b8 bd 05 42 f9 3e 3d 77 8f 3d
       0.29370126 -0.09032922 0.4868318 0.07005165
000360 11 a9 09 bd f3 9f d3 3d 90 2d 90 3d 39 93 98 3e
       -0.0336085 0.10333242 0.0703994 0.29799822
000370 a7 f3 72 be 2c 95 bf 3e 9e 7b 3a 3c 0f 09 62 be
       -0.23725758 0.37418497 0.011382012 -0.22073768
000380 a6 24 47 be 34 22 57 be 65 07 e4 3d db 92 b7 3e
       -0.19447574 -0.21009141 0.11134223 0.3585423
000390 03 b4 5d be 70 d1 6d be 2f ff 27 3d b5 6d 4d 3e
       -0.216507 -0.23224425 0.041014846 0.20061381
0003a0 36 7d b0 3e 26 ce f7 be a2 85 2e 3d e4 03 b9 be
       0.34470528 -0.48399466 0.04260791 -0.3613578
0003b0 98 62 c3 3e eb 5b f1 3b a8 a0 58 bf e5 2b 25 3f
       0.3816116 0.007365694 -0.8462014 0.645201
0003c0 1d 11 7a 3e 11 da fb bd 86 0a c9 be 39 b3 20 3f
       0.2442059 -0.12297452 -0.3926584 0.6277347
0003d0 85 5f 12 bd 1c 5d ce 3e 61 d8 85 be e1 5b 6d 3e
       -0.035735626 0.40305412 -0.26141647 0.2317958
0003e0 63 15 11 3e 17 83 80 3e 06 ed 5e bc 33 37 ae be
       0.14168315 0.25100014 -0.0136063155 -0.3402649
0003f0 d9 95 d4 3e 58 a7 2d 3c 55 78 4b 3e 63 b9 e3 3e
       0.41520575 0.01059898 0.19870122 0.44477376

hidden_layer2.bias f4 [16]
000000 6a e2 72 be b7 dc 60 3e ec 11 1b 3e 03 d6 28 3d
       -0.23719183 0.21959196 0.15143555 0.041219722
000010 45 4f 5a be f6 54 a9 3e d5 ed 15 be 41 d3 42 3e
       -0.21319301 0.33072633 -0.14641507 0.190259
000020 50 59 aa 3e ff d3 bd 3c 3e 0a bb 3d 8e 35 3b be
       0.33271265 0.023172377 0.09132813 -0.18282148
000030 a9 e4 21 3e 39 7a 86 3e d4 85 39 bd ff 55 ca bd
       0.15809883 0.26265123 -0.045293644 -0.09879684

output_layer.weight f4 [1, 16]
000000 68 94 ea 3d bf d0 47 be 6f 4f 96 3f 56 78 0c 3e
       0.114540875 -0.19513224 1.1742991 0.1371778
000010 c1 76 4c be 4b 57 95 be 51 c8 18 3f cf 5d b7 be
       -0.19967176 -0.29168162 0.5968066 -0.35813758
000020 af 18 bb be 32 ea b1 3d ce a4 64 3f b0 23 35 3e
       -0.3654227 0.08687247 0.8931397 0.17689395
000030 32 da ba 3f 75 d4 9f be 42 64 b6 3f e8 af d2 3e
       1.4597838 -0.3121678 1.4249346 0.4114983
